cartpole_nn_params.npy (npy, 5904 bytes, 1 tensors)

array f8 [722]
-0.7698428670309642 0.219690177227242 0.10264968990051365 1.4163874419145626 -0.03341788688024888 -0.3474962705564842 -0.006775133173732351 -0.5076049643407462
0.398926786351505 0.820057532565512 0.07259587095212094 -0.6548060353495033 -0.9506962330320299 -0.46438648828411905 0.5420803258766183 -0.7906728375570947
0.5075476808710019 -1.7431711787733275 -0.2321354728814692 -0.3536110960965676 -0.4367645156367533 0.07814906989504797 0.6993273958750124 0.1349767306945253
-1.1368665936404718 -0.6183041753117366 0.22636594915428454 0.1688437395934515 -0.01316599105114935 -0.6512627872115919 0.8245596756947912 1.0886942182042931
1.4662601016002947 0.0063886393292172106 -0.9417176785303861 -0.37995286891371377 -0.5205434846174682 0.26781968222515223 0.3454991514454144 -0.7436560923824547
0.7051886582504255 -0.7659851768129639 -0.5392620155354824 0.45350185137889615 0.6424543178878526 -0.8745159558723411 -0.33718246105287464 0.6690314981733265
0.37715918849942287 0.2647105077699728 -0.5050197204755508 -0.6432379310495064 0.33562737099392687 -0.0688819691716204 -1.1612226674828552 -1.4200047322084122
-0.06637050099306979 -0.06649028698119114 0.7478708165832209 0.1002626873230567 -0.6356422255327862 -0.18662483662963814 0.05384291503623895 -0.05923849271923221
-0.6830282996483013 -0.9791179797713433 -0.8529443304339238 -0.19514180363354997 0.6703393075721329 -0.6128154441301507 0.21125857727237485 -0.4180343621595747
0.622528008167933 1.383314763437449 0.18375720669913037 -0.05033569128514226 0.21021845254975072 0.1929556813687634 0.8685204512518354 -0.5406343919444903
-0.2870269124950985 -0.8861396658561828 -0.34354919145633706 -0.33440088168401993 0.09891183855197341 -0.05922357007801909 -0.16358849398971603 -0.36393255402588887
-0.6174139780544936 -0.8195711897059561 -1.1081781918984468 -0.3094735962824767 -0.09765255506861215 -0.23757781118042343 -0.029025505611978017 -0.5530731771428599
-0.9679156008961959 0.6635969608277307 -0.36811514036669224 0.5660304067124937 0.2484402387926598 0.11335110073665855 0.1464548561233448 -1.390756587825678
0.12901931141270964 -0.7376450214486753 0.09117860013212199 0.3658781590919854 -0.15822926589257402 0.7079262971614441 1.0181358070694357 -0.12137008364121113
0.5461213106955782 0.047275664045661525 -0.6431102939084252 0.960574921347052 1.2382635350250109 -0.2462062117323926 -0.9217263347746927 0.5850328220507489
0.9726784337862621 0.23603271102794998 -1.0503870160239435 -0.1803863743871991 0.3730769755554984 -0.37277526218426627 -0.5718028889564822 -0.35378287267425856
-0.450657624215075 -0.06070783861606732 -0.45618867699177235 0.6515777685312365 0.21980845218263473 1.4275838732996535 -0.9523403060286154 0.3583296021237965
1.1338223090749597 0.28321729080762953 -0.20420331326064886 -0.03672424993293072 -0.14598959399449438 0.4206971753812864 0.0584072277835854 -0.5207171613146541
0.38360824379300873 0.6498684964332546 0.19067042234563336 1.1609430017200604 -0.15370393973791943 0.4426936918225369 -0.9788117327621222 0.44877722690217303
-0.8225579914122845 0.005986507505319608 -0.4350247554904778 1.3388718900141257 0.06013602001919499 0.07072071936353119 1.0116444855381892 0.19997040598747629
0.1799367938148078 -0.001490907867081781 -0.7864865604780993 -0.7757106782325697 0.02290003233639759 0.7061211799459949 -0.4693335261625421 -0.7501343657753907
-1.345528694682072 -0.8857448334871486 0.11307187978284439 -0.47477256113162003 -0.3723649382357464 -1.4793012629664035 0.14247537760924636 -1.0968446719045315
0.6279384330328157 -0.623675680787878 -0.01845821605940612 0.5523365788522949 -0.5489576666625859 -0.5036996608514842 0.7622720138782388 1.793676005318512
1.9355965352159223 0.2951646334249223 0.013556854905260152 -0.6020870848109926 -0.02121661543721265 -0.893179458448763 1.575826753447109 -0.4515538882085722
0.29095958935998556 -0.8683366020336081 0.7196217736482744 0.11501766275806294 0.43849709467942466 0.4266261853255081 0.32453316881611827 0.31386421122330205
-0.5558298525425334 -0.020948044271914497 0.7424674976864303 -0.7026640356691385 0.018068790615268178 -0.8386931527435796 0.6374384340708448 -1.145963493967769
-0.4099200825802599 -0.3360357970837785 -0.048446315174601295 -0.5173732432790416 -0.4106322826226234 0.1414855766526788 -0.38782167148675484 -0.19218812230266002
-0.3692770562933487 -0.09200975323877636 -0.313858879781147 0.3595592742697414 -0.5922720822299536 0.5159411357838459 0.6017574505868452 1.5636116867974785
0.6884704145450314 -0.6554995319570425 0.36000918476512833 0.5120230530459456 -1.0524797064337603 -1.0356851441497406 -0.5963673507568231 0.17390098930387887
0.5124265149980849 -1.1358263254051304 -1.5008946714882385 -0.21456029444016933 0.09731815122143456 -0.41302048107932743 -1.2276944144154949 -0.6053176227858976
-0.19779031598870578 -1.608037509998457 -0.04423863269507455 -0.7159565536043019 -0.23936050506153558 0.4184681522894886 0.16262811354453513 -0.7900741495480411
0.19187498019975102 -0.7128683131155941 0.4285972365272084 0.7083679824065034 0.13452795679773205 -0.28049720050201504 -0.3114279183405755 -0.2857246375333443
00000000: a99e 1e82 8da2 e8bf eac2 38c7 ce1e cc3f
00000010: 2437 1105 4047 ba3f 72cf d7e0 85a9 f63f
00000020: c812 8136 261c a1bf 8d69 61ff 603d d6bf
00000030: 80fe 83f6 3dc0 7bbf 1d2f 24c4 4c3e e0bf
00000040: ae32 3837 0488 d93f 70a2 664b e93d ea3f
00000050: 0862 909b a495 b23f ce95 61c9 2bf4 e4bf
00000060: e0b1 a981 1a6c eebf ef9c f81a 82b8 ddbf
00000070: 3e3e eed6 b858 e13f 7195 641f 314d e9bf
00000080: 170d 50a2 d43d e03f 5294 4276 07e4 fbbf
00000090: 553a 227c 9db6 cdbf ba32 4f6f 90a1 d6bf
000000a0: 05a4 ad27 f3f3 dbbf 0e7c 69d3 9301 b43f
000000b0: 5a5c cfd8 e360 e63f ffe8 06e2 ea46 c13f
000000c0: aa9c 7906 9b30 f2bf 8e36 7ed6 25c9 e3bf
000000d0: e4d7 4536 8ff9 cc3f 6a17 d8f1 ab9c c53f
000000e0: c077 df67 c5f6 8abf 789e 850e 25d7 e4bf
000000f0: 2db4 16f9 ca62 ea3f f481 e8a0 4a6b f13f
00000100: b1d8 fc26 cd75 f73f 2043 c24f f92a 7a3f
00000110: 2f4c eb1c 8d22 eebf a15e 80d6 2551 d8bf
00000120: 337e 52cf 4aa8 e0bf 0175 182a f523 d13f
00000130: 5b3e 1079 a81c d63f 1c1f 88dc 07cc e7bf
00000140: 2943 16ce e790 e63f 173d 7458 f382 e8bf
00000150: ea65 166a a241 e1bf 8b42 16a1 2c06 dd3f
00000160: f612 905b fc8e e43f 09a9 c9e2 08fc ebbf
00000170: e470 c0be 6594 d5bf 0cbf 94be b468 e53f
00000180: 3e6b ff4a 6023 d83f c1e4 7157 04f1 d03f
00000190: b5e1 e81d 1f29 e0bf 4cf0 acb6 6795 e4bf
000001a0: 91ed 8339 eb7a d53f fa4d e0ac 3fa2 b1bf
000001b0: 6867 4338 5e94 f2bf 8201 d0e1 56b8 f6bf
000001c0: e432 2f3b a8fd b0bf 9cfb 15e8 8105 b1bf
000001d0: ac72 5bc7 8eee e73f 2bc5 0fc3 d0aa b93f
000001e0: d1d6 535d 2e57 e4bf b00a f998 52e3 c7bf
000001f0: 6066 676e 4c91 ab3f 8170 c9f9 8154 aebf
00000200: 126c 272a 5edb e5bf 6d64 c13a ef54 efbf
00000210: d9b6 90e8 514b ebbf 7122 5818 68fa c8bf
00000220: ecdb 676b 6b73 e53f 0fba 6022 2f9c e3bf
00000230: 0432 3164 850a cb3f 0e18 8532 13c1 dabf
00000240: 009c 7ddb bfeb e33f e99a 50a9 0e22 f63f
00000250: 76aa 962c 5b85 c73f 6050 c887 99c5 a9bf
00000260: 9dc3 5b31 70e8 ca3f b832 8792 c5b2 c83f
00000270: da14 c166 ebca eb3f 62d2 0f7f e04c e1bf
00000280: 5640 8f20 a65e d2bf 314d 9192 415b ecbf
00000290: 4bd2 77bf b5fc d5bf 1688 a5f4 d266 d5bf
000002a0: e298 c447 4952 b93f a760 4641 8d52 aebf
000002b0: 4e07 d8bf 77f0 c4bf a86b 5fc4 ab4a d7bf
000002c0: 42cb 7af5 dac1 e3bf 14fd 105c ed39 eabf
000002d0: 0382 450e 19bb f1bf 468f c057 6ace d3bf
000002e0: a8f9 6302 c2ff b8bf 2839 a320 f368 cebf
000002f0: 1cca 69b5 dcb8 9dbf e0f2 0385 c6b2 e1bf
00000300: 2b65 6423 2af9 eebf f35c 8fb1 2f3c e53f
00000310: a464 42ce 328f d7bf 4ae5 abcc eb1c e23f
00000320: defc 4fc6 e3cc cf3f 302a a1e6 9304 bd3f
00000330: 7af0 b160 08bf c23f 8286 d6fa 8940 f6bf
00000340: a9f6 886d b483 c03f a7bc 65bb c99a e7bf
00000350: 419b a911 7b57 b73f 92ba e739 8c6a d73f
00000360: 3cac 2349 db40 c4bf 4d2d c90c 55a7 e63f
00000370: 26ff a3c5 484a f03f 46a8 f31b 1c12 bfbf
00000380: dac1 2266 d379 e13f c012 f20d 8434 a83f
00000390: 24d8 010a 5c94 e4bf 3663 119e 07bd ee3f
000003a0: 3830 ac6c edcf f33f 0639 bb65 af83 cfbf
000003b0: 1e04 f739 c87e edbf fd6c b9c0 96b8 e23f
000003c0: 2f5e d485 2e20 ef3f 9c5c 53e3 5136 ce3f
000003d0: 2f74 9f9d 62ce f0bf 458a 5195 e616 c7bf
000003e0: 79b1 3940 7ee0 d73f 42b6 f5c5 8cdb d7bf
000003f0: f571 7a92 354c e2bf fa55 01eb 60a4 d6bf
00000400: 7398 6c13 93d7 dcbf a007 ef0a 1915 afbf
00000410: 060d 1ffe 3132 ddbf e08d d49e b9d9 e43f
00000420: 3a20 c1f0 ae22 cc3f 81e7 0130 62d7 f63f
00000430: f1c6 a160 9279 eebf 90dd 9348 dfee d63f
00000440: 083c 8fdc 2224 f23f 278d 6b6a 3b20 d23f
00000450: f73b 188c 5523 cabf f837 dd58 85cd a2bf
00000460: 379f e179 c9af c2bf 970f 72d8 b3ec da3f
00000470: 5c6d 5c5a 8de7 ad3f 25ff 4909 b7a9 e0bf
00000480: 3249 6497 098d d83f 6c35 5c04 b9cb e43f
00000490: 0cfe 246e e367 c83f 1186 0ef8 3893 f23f
000004a0: 7969 3819 92ac c3bf ba7d 21ec 1755 dc3f
000004b0: e6f0 a4fb 6c52 efbf 7c00 2f1e c4b8 dc3f
000004c0: 18bc 0523 6552 eabf 10e0 3ddf 4e85 783f
000004d0: 440c 7212 72d7 dbbf 604f 52ee 046c f53f
000004e0: e88c 96fe 25ca ae3f c8e2 d0c8 c01a b23f
000004f0: 560b c920 b22f f03f a828 f158 a198 c93f
00000500: 910e 643a 2b08 c73f 0025 f321 526d 58bf
00000510: 1ee7 ffdc e52a e9bf f756 4533 9fd2 e8bf
00000520: 2043 d927 1b73 973f fb30 dc71 8b98 e63f
00000530: e634 727c 8f09 debf 5a8d 13c9 1901 e8bf
00000540: 39d3 b718 4987 f5bf 61b4 8d8c 0558 ecbf
00000550: 38ba c359 47f2 bc3f 504d c673 ac62 debf
00000560: e592 f9bf d3d4 d7bf 87f4 15cd 37ab f7bf
00000570: 4592 a817 a23c c23f f2f2 a9ff ac8c f1bf
00000580: b4e0 3857 1218 e43f 506c 89b3 26f5 e3bf
00000590: 6046 45e9 b5e6 92bf a4c3 d1c2 bdac e13f
000005a0: 6e89 26ab 0f91 e1bf 1ba1 4bc0 4e1e e0bf
000005b0: 446b 4847 8864 e83f 2a68 679c e5b2 fc3f
000005c0: 830d 9012 34f8 fe3f 54bc df33 fae3 d23f
000005d0: c03e a343 b2c3 8b3f 1d6e 5322 4c44 e3bf
000005e0: 8011 bdf5 ceb9 95bf bde2 6f16 ed94 ecbf
000005f0: 9b79 231d 9636 f93f 8132 8f47 42e6 dcbf
00000600: fe8e 30f8 149f d23f 80ee 74d7 69c9 ebbf
00000610: 20e2 e93d 2407 e73f da1b 022c cc71 bd3f
00000620: 5881 421e 5610 dc3f 5ac7 65ea d74d db3f
00000630: 1214 a2c4 26c5 d43f d7b0 a5ea 5916 d43f
00000640: 1ef1 d9af 5bc9 e1bf b28b 4074 6773 95bf
00000650: 60ff 9c32 4bc2 e73f 4ac7 a849 397c e6bf
00000660: 5259 1503 a080 923f b735 cd05 93d6 eabf
00000670: 0287 7149 e565 e43f fc05 10d1 dd55 f2bf
00000680: 36f9 2971 213c dabf d2a5 b049 9c81 d5bf
00000690: 00c0 9296 f4cd a8bf 99af f654 528e e0bf
000006a0: 9cf1 22a0 cc47 dabf 401b 4a0a 331c c23f
000006b0: 80cd edfc 11d2 d8bf f81a fcd1 9e99 c8bf
000006c0: 7c5b fc3b 3ca2 d7bf c8d5 1281 f38d b7bf
000006d0: bc07 0e8e 4316 d4bf f591 fde6 0403 d73f
000006e0: fe5d f094 e4f3 e2bf 6e49 1bfc 9682 e03f
000006f0: 7fa2 4cd7 9841 e33f 5d04 27b0 8d04 f93f
00000700: cd80 571b f307 e63f ce8f 8927 daf9 e4bf
00000710: b0da b4f6 630a d73f 512c 742b 7e62 e03f
00000720: 0c63 edf5 f4d6 f0bf 0a38 f195 2a92 f0bf
00000730: 0de3 7cfb 7015 e3bf acae e63a 6342 c63f
00000740: 12a4 704a cc65 e03f 71d0 9839 582c f2bf
00000750: ba85 8c21 aa03 f8bf 1401 d233 b676 cbbf
00000760: 64a1 cda4 d7e9 b83f e816 b474 ed6e dabf
00000770: be57 f6e5 a2a4 f3bf 46da 3110 c35e e3bf
00000780: 2089 516d 3151 c9bf 4ff4 428a 85ba f9bf
00000790: c04a 4a31 72a6 a6bf 8dcb e2b7 1de9 e6bf
000007a0: 4bbf 9872 5da3 cebf c30e 20a5 2ec8 da3f
000007b0: f9be 8a7e ffd0 c43f c729 3795 4948 e9bf
000007c0: 4075 70fe 5b8f c83f 0ff5 6535 d1cf e6bf
000007d0: e094 821a 236e db3f 9e05 bf54 f3aa e63f
000007e0: e206 6c4b 3638 c13f 39a5 b187 aaf3 d1bf
000007f0: 6462 155d 6fee d3bf ae7f 77fd 4f49 d2bf
