hopper_nn_params1.npy (npy, 12464 bytes, 1 tensors)

array f8 [1542]
0.4799978225524907 0.7004325153640409 0.038669661442254706 -0.33067234974339244 0.18263729242530663 -0.059593874473440195 0.3691763400049942 0.2360413775134705
-0.09770978738811512 -0.5320531170745799 0.06852352638131613 0.6070732066936256 0.11768870094514959 -0.31829384173679914 1.2235036475834102 -0.46499715512183215
0.5412721131815241 0.798669357536744 0.7001184628595052 -0.2734679674402093 0.3250472160672851 -0.15006743428427416 1.119472718641916 0.19711203106745567
-0.02921370477225499 0.15490847115340486 -0.29468395956406523 -0.06455260166445176 -0.19308742217536798 -0.7652904991393357 -0.09389092150596803 0.18997582389246429
-0.5784279911027143 0.1676086659380986 0.012281768125376472 0.024303981941076525 -0.8614218661840707 -0.7784601093705971 -0.012488797359536452 0.33442028019189385
0.02719853235423464 0.8056781235058464 -1.2888570182031587 -0.12955074379670145 -0.3868704685603838 -0.523300737949791 -0.23169652010341918 0.15239453262409622
-0.7872874274863177 0.3244519689147928 0.10728605628566962 -0.19824628513786302 0.04502711838686668 -0.3392138527271334 -0.15666224429517694 0.13132419407076237
-0.6720770501459877 -0.3558410157867268 -0.07037786975038224 -0.11556515264510238 0.41357920358538547 0.5604263220696142 -0.07333369168370692 0.1703167074205172
0.2459137910208122 -0.7918293733027464 0.043198199291701905 -0.05707203194284155 0.1390581827330156 -0.23966228981665466 0.2897717987545919 -0.35447416189176484
0.2363222317940121 -0.06336935884121553 -0.1827636495802532 0.23244641291141988 0.800488217082424 -0.13627614170249028 -0.4105569811485816 -0.60494601947539
0.22471265517990469 -0.37411282870889906 0.23900180988756076 0.2009149494714895 0.13719555054028293 0.0015987927293627802 0.16081521756442493 -0.1326988537150192
0.20879097123774493 0.6608632129605707 0.9961369981898167 -0.30986206344655454 0.004198569495706961 -0.7522640644981956 0.1837651892984317 0.38483960990212684
-0.1569703281553092 0.7034677698801004 -0.32009130292999066 -0.4433203278403095 -0.9085101382395856 -0.39569184173579963 0.6976378439544497 1.0754088498799985
-0.9883932020034315 -0.399261551397069 -0.3210072629988805 -0.35606073544082373 0.4170764322854845 0.20919046799079566 -1.0540918582712386 -0.2887904154562791
0.2381794499466212 0.0763732192040869 -0.5620353557404115 0.07413700743619395 0.001761403810040807 -0.2819506848158886 -0.33654414909877445 -1.1841988761234934
0.9111417547338209 -1.1490343923765391 -0.11581155465964768 0.690310877027405 -0.3821408150303019 0.2525141877864071 -0.0909721956933626 -0.16781219230556224
-0.7495140924136137 0.33454208289686166 -0.3290204294228902 -0.5428209788362003 -0.7562882599119074 -0.605683970423617 -0.1016211050288457 0.06862860773532656
-0.24322209297475506 0.44191804168864324 -0.8711300673456487 0.5606581395315746 0.40718530260886804 -0.017618541734040538 -1.043677182201624 0.24334701316358293
-0.6153761518755123 0.21324440911328102 0.30336265939633683 -0.28000942953383967 -0.2749260924693867 0.3213954417326113 -0.18348990280372957 1.145406105304018
0.1320228808333496 0.15878996347413304 -1.4407462777395257 0.05104971347331946 0.9752619211363165 0.5640235824029984 -1.032291737480876 0.043672546501148324
-0.2173391977018802 -0.2667703566774655 1.094849703461233 -0.015682976302865304 0.45493644790967835 0.1317209548132292 -0.5163265418214478 0.6040890321487669
0.09375018387585249 -0.17705921442129297 0.13772872612519127 0.8546364436972375 -0.2382695916760657 -0.47379373994833224 0.26921652348982195 -0.39147547060493026
0.7154039380895356 1.3038041282858666 0.123091883340345 0.003953152425515222 0.7071397799005488 -0.05171585488349492 -0.9236679818139636 0.10004790588649347
-0.29591470013095156 0.36718283149661995 -0.2284079484756201 0.019174160785671635 1.1146073426316114 -0.07383648392784958 0.49476950660160146 -0.6149764273694405
0.2647877386140585 0.7749746345513391 0.24468750898775288 0.10187030277434558 -0.5747500658824194 -0.5221093146873197 1.2504080638012351 -0.3656049532880869
0.5318798479223492 0.45659328360513823 -0.4755139645835579 0.13041157397227723 -0.24225383419921787 0.03345342693817527 0.3165619528376336 0.312754990420028
-0.36914437215447865 0.8293336940227526 0.4208730322062967 0.2516127854083325 -0.31215927656558196 -0.23095618811748345 0.01971870249701216 -0.5760573121545519
0.6730702689269071 -0.27461377956779054 0.540496574962487 -1.1040869462461465 -0.3280849389147934 0.30035738968206144 -0.27945303593659127 0.15998628974233814
-0.11618591766141895 0.2867364655864788 -0.030629920696179258 0.08695701952480711 -0.5708387711641779 -0.07927406068633844 -0.9124813267289765 0.3773819401305917
0.7311959043759279 -0.5756237721217023 0.17285822050966287 -0.4823175835007236 -0.32358421621838823 0.515469393801674 1.48066889419825 -0.22552460770301233
0.10450930594556784 0.7887692165318367 -0.36213130565852514 -0.0944149038357493 -0.8670964442854866 0.36136432739215485 -0.33709008908749305 -0.6427628435364905
-0.0630333995842014 -0.33712057613780294 0.45504801689763874 1.2945432464474398 0.6372060737180607 0.18723844042818202 -0.37298310942830637 0.33376048412636466
00000000: fae7 80c9 48b8 de3f f464 5173 f169 e63f
00000010: 31d7 7b86 82cc a33f d2b7 f55b bc29 d5bf
00000020: 3a93 ffa6 a860 c73f ac8a cf9b 1683 aebf
00000030: bed1 b1cc 95a0 d73f a329 7696 9a36 ce3f
00000040: dac0 5435 8203 b9bf ea3e 3242 9406 e1bf
00000050: fb78 d000 c28a b13f f1dc 20ca 246d e33f
00000060: 570b abc1 d820 be3f b1c6 3122 ed5e d4bf
00000070: f184 8e8f 7893 f33f c0cd 7e6d 83c2 ddbf
00000080: 223f 0be5 1952 e13f 3301 5e0a b38e e93f
00000090: f0d5 a9d5 5e67 e63f d631 2aca 7f80 d1bf
000000a0: a98c aad6 92cd d43f fc08 39e1 6835 c3bf
000000b0: c14c b539 5ce9 f13f 189b 8a8f f73a c93f
000000c0: d009 5e8a 32ea 9dbf fb15 bd70 0ad4 c33f
000000d0: caf0 3e1c 1adc d2bf d041 05f1 8486 b0bf
000000e0: 278e c1b1 16b7 c8bf 5ac6 3780 427d e8bf
000000f0: 626a 4245 3c09 b8bf 890b 53b7 2051 c83f
00000100: 8111 1c6b 7b82 e2bf 367b 5d65 3374 c53f
00000110: 2800 7c03 2f27 893f e0e2 659e 24e3 983f
00000120: 643c ea96 c490 ebbf f197 df2c 25e9 e8bf
00000130: 00fd cd01 ba93 89bf 18c6 a251 2467 d53f
00000140: e0b0 d79b eed9 9b3f a5ed f17c 1dc8 e93f
00000150: 3a71 6689 289f f4bf 5ac0 e367 1e95 c0bf
00000160: a752 905a 7cc2 d8bf d1f1 6e30 e1be e0bf
00000170: fa78 3848 3ba8 cdbf 65d7 dafe a981 c33f
00000180: f261 3367 7531 e9bf 7228 e730 d2c3 d43f
00000190: fc52 1057 1977 bb3f 083d 9c5f 2260 c9bf
000001a0: 8036 cf61 cb0d a73f 710b f404 aeb5 d5bf
000001b0: 0404 e227 820d c4bf c18e 5a2f 3bcf c03f
000001c0: 099d d8ba a781 e5bf 4648 5865 19c6 d6bf
000001d0: 6ca6 f0b8 4804 b2bf 99ff 2a87 ad95 bdbf
000001e0: 021e 6de8 1478 da3f e868 a32e 03ef e13f
000001f0: d5f9 792f ffc5 b2bf d8b0 2a18 f0cc c53f
00000200: 1fee 0865 1a7a cf3f 7c1e cb8d aa56 e9bf
00000210: 246c 680a 131e a63f 48ea 6b9d 8b38 adbf
00000220: db2c 8a95 a8cc c13f ae6a 6c00 41ad cebf
00000230: 6a0f bd03 9f8b d23f 7489 2665 b4af d6bf
00000240: e7be 6f90 ce3f ce3f 58a0 ca6b f938 b0bf
00000250: 2222 ec9c cc64 c7bf b876 c3d6 cdc0 cd3f
00000260: bb79 2677 999d e93f 412b eb21 7f71 c1bf
00000270: 8f5e cbc9 9046 dabf eebf 2fc1 b75b e3bf
00000280: ac5c 7f60 62c3 cc3f c066 14ef 76f1 d7bf
00000290: e670 937e 9c97 ce3f 11f7 a0c0 94b7 c93f
000002a0: e215 5db1 9f8f c13f 80a3 159f d231 5a3f
000002b0: cbb4 11d2 9795 c43f e31a 76aa 46fc c0bf
000002c0: c045 959c a9b9 ca3f be71 d99b ca25 e53f
000002d0: aef2 b1b2 5ae0 ef3f b089 31b1 c7d4 d3bf
000002e0: 00e3 c8ea 8432 713f a139 5f16 8c12 e8bf
000002f0: ad0a 1723 9e85 c73f c60a af50 36a1 d83f
00000300: d849 ef8c 9a17 c4bf 4c9a 2dd7 ce82 e63f
00000310: aa5f 743b 607c d4bf e078 6e39 5c5f dcbf
00000320: c759 7ada 8312 edbf 3227 e3df 0353 d9bf
00000330: e08f 8799 0c53 e63f 5f04 01e9 df34 f13f
00000340: d330 c6c7 eaa0 efbf 983d 7352 808d d9bf
00000350: 54f4 160c 628b d4bf 3aea 86f7 b2c9 d6bf
00000360: 104e 2659 61b1 da3f 38e4 53d5 c0c6 ca3f
00000370: d013 a46c 8fdd f0bf 351c 72cb 8a7b d2bf
00000380: 08cd 0c0a aa7c ce3f 3094 c5fe 318d b33f
00000390: b339 0392 31fc e1bf 6c9c 5c96 a4fa b23f
000003a0: 0053 96f0 dcdb 5c3f 709e 97e2 7a0b d2bf
000003b0: 4585 8278 f089 d5bf d590 4e85 7af2 f2bf
000003c0: 0f42 d3c0 1228 ed3f 92c8 13e3 7162 f2bf
000003d0: 3219 c377 d3a5 bdbf 2bfc 1cd6 0617 e63f
000003e0: 5567 c1bf fe74 d8bf 4a64 9444 3129 d03f
000003f0: 7a2a 592d f449 b7bf 2146 e9b2 de7a c5bf
00000400: ccd7 59fa 04fc e7bf 1f60 4b32 2369 d53f
00000410: 8494 05b4 ab0e d5bf dfe4 f519 ca5e e1bf
00000420: d673 d56f 8333 e8bf a8c9 9559 c361 e3bf
00000430: 79a9 ae3a d703 babf ca11 cbf9 a491 b13f
00000440: 18e1 7ecb e621 cfbf 642a 249c 6248 dc3f
00000450: 95fa b929 4ce0 ebbf 36c7 b056 e9f0 e13f
00000460: 237c 87f1 520f da3f 2023 3452 980a 92bf
00000470: d332 52d8 e6b2 f0bf 9af5 8eb3 fe25 cf3f
00000480: 9e65 e153 29b1 e3bf 3023 99c1 974b cb3f
00000490: a5d4 3b37 4b6a d33f 66d8 9aab aceb d1bf
000004a0: 1247 fe9b 6398 d1bf 71cd d42f be91 d43f
000004b0: 2818 d8dd 987c c7bf 3bb6 2e5a 9553 f23f
000004c0: 6560 c031 20e6 c03f c2f7 06c2 3a53 c43f
000004d0: 9599 0bf8 4b0d f7bf 8318 ad23 3023 aa3f
000004e0: 4a11 0a7d 5835 ef3f 18ff 122f 7b0c e23f
000004f0: 0395 4657 4484 f0bf 8833 e97d 3f5c a63f
00000500: b25c 2255 c5d1 cbbf c034 5ef9 c312 d1bf
00000510: b36b 661f 8184 f13f 208b 4cb9 320f 90bf
00000520: 52f3 61c3 ad1d dd3f 8873 8f74 3bdc c03f
00000530: b2c1 653d bf85 e0bf 9c70 9e85 b254 e33f
00000540: 4ca3 bd15 0300 b83f 3e8c b257 e0a9 c6bf
00000550: 44b6 364b 18a1 c13f b9c7 f486 2e59 eb3f
00000560: 0ea3 f033 9e7f cebf db2a 88fa a252 debf
00000570: 5a9f fbf0 d73a d13f f6cc db21 ef0d d9bf
00000580: f4c5 b0cc 96e4 e63f 970a b6b7 61dc f43f
00000590: 658e 591d f382 bf3f 2099 2346 2e31 703f
000005a0: acf3 8b9a e3a0 e63f cc8e d122 807a aabf
000005b0: 011b c827 b08e edbf a7d6 d053 bd9c b93f
000005c0: 16f5 dd35 44f0 d2bf f58f 3b6b ec7f d73f
000005d0: f1b3 6cbe 783c cdbf 30c5 0226 64a2 933f
000005e0: 70bf 4782 6ed5 f13f 30c4 b8a3 f2e6 b2bf
000005f0: 225d 7ab8 4daa df3f f69a 6b0b e3ad e3bf
00000600: d9aa 6e45 48f2 d03f ea14 d49a 97cc e83f
00000610: 16ca 6b98 eb51 cf3f 6674 d912 2c14 ba3f
00000620: c0d7 0a40 5a64 e2bf bc9b f097 1eb5 e0bf
00000630: 52e5 cae2 ab01 f43f 2f30 6851 1266 d7bf
00000640: 504b 07e3 2805 e13f 8f11 2a09 d338 dd3f
00000650: 2a5f ab1f d26e debf 5d8b 9d92 53b1 c03f
00000660: fcad 9b73 2c02 cfbf 08f5 46bd ce20 a13f
00000670: 2d1d a610 8d42 d43f b5f2 e081 2d04 d43f
00000680: e7fa 79b7 0fa0 d7bf 138e a9d0 e689 ea3f
00000690: a20a 4671 95ef da3f 6b64 2583 6c1a d03f
000006a0: 1a80 ffe6 6afa d3bf 45ff 62ed f88f cdbf
000006b0: 687b 60b9 2331 943f 336a 8abe 0f6f e2bf
000006c0: 856e 1ea9 ca89 e53f 4493 91ac 4593 d1bf
000006d0: 6c0b 2279 bf4b e13f 5615 e112 57aa f1bf
000006e0: 9ebf bcf8 57ff d4bf ebf7 7233 0e39 d33f
000006f0: 8965 87fc 8ee2 d1bf 7238 2045 6e7a c43f
00000700: 188e 9c3c 5cbe bdbf 7cee 90e7 e359 d23f
00000710: 3039 ad2e 735d 9fbf 2445 04b3 d042 b63f
00000720: 0f0c aeab 4f44 e2bf 3ea6 110a 4e4b b4bf
00000730: 655f 100a 0c33 edbf 1e90 bd94 0627 d83f
00000740: ab70 08f4 f465 e73f 0403 828b 826b e2bf
00000750: 6685 f7d9 3720 c63f 84f7 da91 4ade debf
00000760: ad39 8a92 9ab5 d4bf c5f2 8eab b97e e03f
00000770: 5393 ccdd d1b0 f73f 9d8a 4387 fddd ccbf
00000780: 88f3 2933 1fc1 ba3f a410 a3f0 983d e93f
00000790: 3450 aac8 282d d7bf 5cc2 3a3c 932b b8bf
000007a0: bfe3 d50a 41bf ebbf 2ac8 05d8 9720 d73f
000007b0: c4ef 1b4f e292 d5bf 9657 0262 8391 e4bf
000007c0: 9014 c5f5 f422 b0bf c183 542e 6293 d5bf
000007d0: 44d7 abb7 811f dd3f a2fd abfa 72b6 f43f
000007e0: f6cf edfd fd63 e43f 0bb7 18e1 6df7 c73f
000007f0: 261e 3d8c f4de d7bf 7145 01ef 545c d53f
