hopper_nn_params.npy (npy, 12464 bytes, 1 tensors)

array f8 [1542]
000000 cc e7 b5 67 e6 9b ce bf 8c ea df 6b ef 2c d7 3f
       -0.23913269103996837 0.36211762938152314
000010 54 3f 13 a9 30 c2 f4 3f 46 87 39 a6 22 d6 ea bf
       1.2974096874713341 -0.838639568956048
000020 a7 9c 25 4d 7a ff e0 3f 19 2c 76 6b 63 c3 de 3f
       0.53118624751814 0.4806755589895047
000030 cd 56 04 cd 77 9c e0 3f ac 5d c9 94 eb e5 a8 3f
       0.5191000942456526 0.0486291522144556
000040 36 ac c9 70 90 81 cc bf 90 b4 8f e8 3a c4 d7 bf
       -0.222703986236725 -0.3713519354922221
000050 f2 81 78 b9 fc ea e5 3f 48 aa 16 5e 2f 23 eb bf
       0.684934961555028 -0.8480450475374903
000060 f0 0f 6a 7e bf bc de bf 50 ec 0e 25 fa 1c c9 3f
       -0.48027026505610504 0.19619681176650028
000070 8c b4 56 2b 69 2c e8 bf 41 85 47 df 03 e6 d6 bf
       -0.7554212423762166 -0.3577890091383616
000080 6d db 52 63 ff 9a d4 3f e0 00 47 ef bc d1 9f bf
       0.3219603033025383 -0.031073524574595335
000090 e6 e9 ec 29 83 36 ed 3f 12 20 a2 c9 e2 67 e3 bf
       0.9129043406349495 -0.6064313829565455
0000a0 bd 94 1b c8 bd 92 f2 3f 14 bb 14 f5 93 4f b7 bf
       1.160825521155217 -0.0910580132810817
0000b0 a8 76 8d b3 1f c2 f7 bf 6e 5e da be bf 4d e4 bf
       -1.484893514039337 -0.6344908454511378
0000c0 56 93 ad af f3 bc e2 3f fe 4a 1c bc 9b 96 d1 bf
       0.5855654174052727 -0.2748174035088339
0000d0 51 59 fc 4a 66 93 ed 3f 0c d1 dc 28 81 43 e3 3f
       0.9242431129994576 0.6019902990433663
0000e0 aa 93 04 4d 0f e5 d4 bf 92 d7 92 fb 9c 4c c8 3f
       -0.3264806987884251 0.1898380497347572
0000f0 a9 0d 77 0f 79 8e af 3f ff 4f 3c f4 b6 8f c6 bf
       0.06163385690481544 -0.17626082349363512
000100 4b e8 58 92 76 3f dc bf 51 19 14 cb 71 71 d1 bf
       -0.4413734845326231 -0.27254910308729047
000110 60 f7 7b 69 ab 85 df 3f 9b 38 00 41 6a 5e e9 3f
       0.4925335435981335 0.792775275187313
000120 36 e1 47 60 9a 16 e5 3f 2c 5e 72 5b 97 85 d3 bf
       0.6590091591342915 -0.3050287621531165
000130 48 96 66 7d e6 dd e7 3f 0b aa a6 ab 8d 47 c4 3f
       0.7458374451859493 0.15843363648794226
000140 0e 9e e4 00 d3 e8 ec 3f f0 42 60 c6 07 5d 9c 3f
       0.9034209268037914 0.027698632700835668
000150 ff 4c c6 cb 69 de db bf cb 00 39 50 97 78 e1 3f
       -0.4354500284182023 0.5459705893372527
000160 42 ec c5 a3 21 42 dc bf 1a 3b e1 bb 50 f8 d3 3f
       -0.44153634065122926 0.3120309672130347
000170 c8 bd 0e f9 65 79 f8 bf 52 e4 0a f3 86 fe ee 3f
       -1.529638264542756 0.9685702082562193
000180 2e d1 9e 8a 7c 54 f4 bf d0 24 42 e2 95 c6 e7 bf
       -1.2706265845163887 -0.7429913920506355
000190 2f 4e c0 a7 ac 07 d6 3f ad f1 e9 da df 4e e9 3f
       0.3442184103198284 0.7908782268200888
0001a0 c8 5b 33 4c f4 4a c3 bf 5f 5c 95 12 0f 7b df bf
       -0.15072492333157883 -0.4918859178046144
0001b0 f2 1d be fd 78 ab df bf 6d 1d fc 8d be 73 d9 bf
       -0.4948408582644951 -0.39768947473245114
0001c0 6f 0d 69 e9 14 1f ec 3f 51 30 35 ac 0c d0 de bf
       0.8787941511913412 -0.48144833390393155
0001d0 14 21 1b 22 b1 ee af 3f c5 14 e0 2e 78 1c e1 3f
       0.062367949879958 0.534725276521066
0001e0 eb b8 6f 52 1a 18 d9 bf a5 ed 7c 45 81 34 e2 bf
       -0.39209611940795125 -0.5689092976748965
0001f0 ac f4 16 f7 7e 7f b2 bf 5e ef 05 a0 74 5b f5 3f
       -0.07225793392622631 1.334828019228517
000200 ca bd 66 86 3d 71 cd bf e4 69 62 99 b0 f4 c6 3f
       -0.23001832068028555 0.17934234132265126
000210 ca 65 b1 84 7d 04 d2 bf a3 2e c7 ef 64 ef e3 bf
       -0.2815240665273363 -0.622972935024752
000220 c6 ea d3 2f 9a 74 e0 3f b4 e7 c8 5a 0f 9b d0 3f
       0.514233678258585 0.2594641100473567
000230 2b c5 92 ee 79 26 f2 bf 51 9e da c1 6c 4a e7 3f
       -1.1343936270971635 0.7278350626192581
000240 a5 b5 4b d3 72 92 e1 bf 40 7d 3b 86 f0 39 f3 3f
       -0.5491270186300211 1.2016453975155201
000250 d7 27 5a b4 53 d7 cf 3f 76 b2 85 eb 43 6f de 3f
       0.24875875765093156 0.4755410957357421
000260 e8 40 9e 43 1e 59 be 3f 06 40 46 c0 81 e0 b2 bf
       0.11854733610948964 -0.07373820251655169
000270 e0 81 af aa 19 a8 d3 3f 5e e6 20 a4 5a 46 db bf
       0.30713502567780715 -0.4261690714662104
000280 54 11 93 d1 d4 66 d9 3f 9e 29 62 64 f5 46 d8 3f
       0.39690132585771676 0.3793309669787507
000290 c3 f9 89 d3 39 16 b5 3f f0 2b 12 c7 98 06 99 3f
       0.08237039007688111 0.024439227247551487
0002a0 e8 16 4f 49 46 b3 b0 bf 32 f2 2f 5b 85 c8 e2 3f
       -0.06523551263589022 0.5869776516916032
0002b0 8e de 51 29 54 cc d5 3f 04 a6 21 6b 5a fe d4 bf
       0.34059623751770907 -0.32802448713354715
0002c0 38 1b fe 0c 56 ac ac bf 60 1c 28 df e0 61 f8 bf
       -0.05600232037163838 -1.523896094995301
0002d0 0b 45 31 82 ef 84 e7 3f 46 c7 fb 23 c5 b0 e0 bf
       0.7349774878331642 -0.5215783789446753
0002e0 6d 68 b4 1b bd b2 e1 3f 9d ae fa 04 c1 84 e7 bf
       0.5530686894519597 -0.734955320096066
0002f0 53 6a 50 82 6e e1 bb bf 5b 96 85 a8 0c 4a e1 bf
       -0.10890856439110878 -0.5402892390672592
000300 32 98 39 47 ec a7 e4 bf 5a 4e b6 9c a1 40 ce bf
       -0.6454984084236968 -0.2363473906703913
000310 a5 95 c2 88 a1 d4 e1 bf f3 c6 de 84 1f 8c e4 3f
       -0.5572059317679999 0.6421048731919811
000320 cf a1 e4 e8 2c 47 e0 bf 84 61 9f 55 f0 e3 bb 3f
       -0.5086884068196528 0.10894682016749441
000330 c3 80 09 42 88 ad d0 3f dd fb 03 95 5d ce d1 3f
       0.26059156845986936 0.2782205538969132
000340 fa f0 4f e2 fd 31 c3 3f 80 0a 6d 43 f2 dd 9d 3f
       0.14996312666324468 0.029166970601418374
000350 4d db 51 be ea ea dd bf 6b ec 73 df 8e 08 ef bf
       -0.4674631937590917 -0.9697946895897877
000360 57 70 dc ca 74 e5 f6 bf e7 7b 45 68 af f3 d2 3f
       -1.4310195850621505 0.29612336333042183
000370 ee 62 ea 98 86 4e c8 bf f8 d3 8b 26 aa 6b b1 bf
       -0.18989641634541193 -0.0680490821940366
000380 c7 b6 98 bf 69 36 ce bf 7e 29 60 d0 a9 d4 f3 3f
       -0.2360355554132438 1.2394197597191972
000390 36 1a 22 84 29 aa ea 3f 06 6a 69 b0 af 57 e9 bf
       0.8332717495657735 -0.7919538922827207
0003a0 a4 03 41 37 59 d2 d7 bf 90 1a e8 1b ae 95 e1 bf
       -0.372213653525302 -0.5495214982082235
0003b0 de 8b 25 bd 45 b8 d8 3f 57 69 e4 72 f8 69 f0 3f
       0.38624709578851746 1.0258717048623873
0003c0 a4 ac 56 66 23 1f b6 3f 8a ac ee 67 72 87 dd bf
       0.08641263245106018 -0.46139202260628365
0003d0 7e 0f 42 b7 16 a8 b9 3f 12 d5 f2 c3 1b 7e ee 3f
       0.10022108053277454 0.9528940989609131
0003e0 0c d1 19 be a6 47 d9 bf 39 78 f9 a1 b7 bf df 3f
       -0.39499825062309024 0.4960764962942253
0003f0 a0 40 72 74 99 61 95 bf 50 b8 17 8e 93 be d5 3f
       -0.020880124790494947 0.3397568595527263
000400 2f 19 45 c4 3e e7 d0 bf 70 9a 14 7a f5 93 b8 3f
       -0.26411408583625734 0.09600767355423456
000410 29 1e c4 93 eb ef d4 bf 6e 81 d9 10 bc e6 e0 3f
       -0.3271435683277298 0.528165848645626
000420 42 c1 8a fd 25 eb b7 3f 85 c9 65 76 a7 78 e9 bf
       0.09343182983389389 -0.7959782898381468
000430 13 d2 4e 8a 7c dc fd 3f c6 3d c4 02 49 7f f9 bf
       1.8663297083522863 -1.593575487906365
000440 7b a9 4c 9a b4 0e d5 3f 80 0a 76 16 8f 22 a4 bf
       0.3290225512343096 -0.03932616376097986
000450 34 69 f5 ef 2d 56 f3 3f be e3 c9 77 db 89 f1 bf
       1.208539903009819 -1.096156566547719
000460 c8 23 a2 be f1 8e b7 bf 63 5f 32 7a 09 a3 f5 bf
       -0.09202490715155343 -1.352303960162282
000470 86 58 be 6d b5 93 df 3f ec bb e2 b4 42 de e7 3f
       0.493390423938202 0.7458814175532757
000480 63 6f fa 55 4a 97 b1 3f fe a7 d8 4a 2a c5 d8 bf
       0.06871475791052499 -0.3870340090676335
000490 8c ca b2 62 9d 1a ea 3f 6a 27 27 19 68 73 dd 3f
       0.8157488753989397 0.4601688619264822
0004a0 4c 2e d2 75 9c 30 9d 3f fd ce b0 98 59 22 d6 3f
       0.02850574940798216 0.34584655677029713
0004b0 f6 e4 ba 21 2d 3e e7 bf 70 b2 49 7d 52 21 b5 3f
       -0.7263398798742446 0.08253970679079159
0004c0 1c 7e 67 80 e8 b8 c1 3f 37 83 d1 05 6d 92 e3 bf
       0.13845545072307253 -0.6116242517128744
0004d0 e0 02 e6 e0 f3 11 84 bf 04 35 a6 c1 f5 1a d6 bf
       -0.009799866963250137 -0.34539550696429466
0004e0 a9 0e 1c d7 80 62 e4 3f 75 e8 a9 c6 04 7e d3 3f
       0.6370243264541006 0.304566568381808
0004f0 e0 37 59 ce 66 ff 85 3f 9e 54 3a 4d ee 1f d4 3f
       0.01074104611612009 0.31444890538961967
000500 20 27 d8 47 6e 60 bd bf 8b de e1 8e 70 3a d6 bf
       -0.11475266698849085 -0.34731687501287273
000510 02 68 51 a3 9c bc fb bf a6 9b f4 fd 0e d1 d6 3f
       -1.7335478191002953 0.3565099220308475
000520 ca 07 fc 6b d6 5d d7 bf 44 b1 96 ab 15 83 e2 bf
       -0.36510239167557457 -0.5785015441265746
000530 f0 f6 0d 20 3a 4f ea 3f df 14 8b bf b1 c7 e6 3f
       0.8221712709489264 0.7118767491416768
000540 aa 78 6d 7b 43 16 f4 3f fb e2 82 c2 f7 75 da bf
       1.2554354497329236 -0.4134501838230304
000550 80 e0 d3 76 bd 18 3c 3f de 4a ae 12 90 83 c7 3f
       0.0004287207182893729 0.1837024775710096
000560 6e e0 37 64 7b 14 d3 3f dc ab 11 3c b3 70 e4 3f
       0.2981251219457651 0.6387573407386031
000570 53 28 13 e6 64 08 c9 3f 62 4a 46 de 41 a6 e0 bf
       0.19556866869089848 -0.5202950803089375
000580 7a 5d 4a 96 d9 93 cb 3f 66 2e 64 d1 2c 7f d4 bf
       0.21544952238467002 -0.3202621502721058
000590 92 20 ad 44 a6 e6 f5 3f de fd 3e 8e 21 b9 ea 3f
       1.3688109095255965 0.8350990083926566
0005a0 dd a4 ae 0b 37 e5 dd bf f3 0d e3 78 0d c7 ed 3f
       -0.46711517468300007 0.9305484162400134
0005b0 84 1c 50 85 4d a5 c6 3f 32 e9 0e 72 14 26 e1 bf
       0.1769196415845934 -0.5358984210682023
0005c0 79 64 30 f3 ec c9 e1 bf d5 9b 2a c5 78 79 d9 bf
       -0.5558991193567088 -0.398039047761299
0005d0 f7 a3 ec d7 82 f7 df bf 56 2b 36 90 ff 93 ea 3f
       -0.4994818791042798 0.8305661980278767
0005e0 be f4 d3 a8 50 d2 ec 3f 8e fa 0a 11 fb 95 df bf
       0.9006732270642244 -0.49352909721702864
0005f0 63 80 dd f5 77 da e5 3f f1 87 a2 3e 7e 80 e9 bf
       0.6829185297065233 -0.7969351981485017
000600 5a 03 b3 7f 20 ef cb 3f 37 2f 99 ae 73 a0 e0 3f
       0.21823507533374703 0.5195864114880128
000610 8c 4a 67 43 ab 0e a8 bf a8 10 6d c3 6c fc d4 3f
       -0.04698691556736376 0.3279067905862214
000620 ce a8 0a b4 bb 27 d8 3f be e8 13 5d f7 c6 e6 bf
       0.37742512304488407 -0.7117878740239332
000630 a0 68 42 a4 06 54 e5 bf 20 79 67 d1 4f c3 7e 3f
       -0.6665070732299405 0.007510482586864847
000640 48 c4 56 23 a7 c8 d2 bf 68 ab c7 b9 a8 57 bb bf
       -0.2934968800646556 -0.10680632148402724
000650 50 b3 c8 56 4f 26 f0 bf f2 e4 cd f8 aa 54 e5 3f
       -1.0093530073165375 0.6665854320009699
000660 13 b8 54 c0 1b b6 c0 3f fc f5 a4 31 e5 a9 cd 3f
       0.13055750743063807 0.2317472927478973
000670 ce f6 9f 23 46 0e e0 3f 04 8b 23 f9 95 f3 ca 3f
       0.5017424293325463 0.210558649682831
000680 84 2b 01 c7 d2 3a e4 bf 74 a7 c2 cb ea 08 ea 3f
       -0.6321805846031201 0.8135885219282799
000690 90 e2 b8 32 09 96 d0 bf 66 6a 9a a8 c3 ff f1 bf
       -0.2591574664434484 -1.1249424539625124
0006a0 ee 03 47 15 72 cb e7 3f 7b f4 0c 2c fd aa e0 bf
       0.743584672505788 -0.520872674976672
0006b0 c4 b9 83 ca c7 0c d0 3f 2e 8b 1f 07 4d 9e ea bf
       0.2507800557786164 -0.8318238391042081
0006c0 ce 35 82 12 fe fb f0 3f 4a 7d fc 16 bc ba ef bf
       1.0615215991014 -0.9915447663260377
0006d0 13 05 83 3b 11 5b ed 3f 84 0d 8b cb 05 9f c0 bf
       0.9173666155185479 -0.12985298575049964
0006e0 fe ad de 2e 8c 94 e0 bf 08 03 f1 9c 97 69 c3 bf
       -0.518133250754033 -0.15165991938740597
0006f0 86 52 45 ef 5f 3a d4 3f 60 9e 87 67 57 d6 77 bf
       0.31606291166580325 -0.0058196462855232
000700 ac 07 48 d3 59 d4 d9 bf a8 f8 a4 83 3e 69 d0 bf
       -0.4035858691496468 -0.2564235959615737
000710 42 18 dc 86 88 73 cd bf a8 40 17 ad f9 3a c4 3f
       -0.23008829674671644 0.15804978324604702
000720 32 5d 82 ba bd 68 e1 3f 10 87 94 4f 59 74 c8 bf
       0.5440357821234214 -0.19105068574668183
000730 19 6d 9a e3 a0 dd cd 3f 00 f4 59 69 73 84 72 bf
       0.2333260642379649 -0.00452084620121429
000740 2d 5a 9c a5 fd 3a d1 bf e2 13 aa 34 63 67 de bf
       -0.2692255132000437 -0.4750602735805939
000750 fa 93 bf f8 3c 98 d9 bf 28 4e 7f ae c1 e3 e2 3f
       -0.3999168805297014 0.5903023155355571
000760 2e ae a5 89 da 75 ec 3f f2 d6 83 b0 ec b8 e6 bf
       0.8893864334508572 -0.7100737998541418
000770 fc 50 fd 2d 90 2d c2 3f 7a 5e bd 1a c4 fb e8 bf
       0.142015478568858 -0.7807331583271229
000780 c2 07 3d 1d 4f 11 da 3f ec 47 b6 41 fe 25 fc 3f
       0.40730645995438064 1.7592756811977734
000790 2a 7d a8 c0 26 e4 d5 3f bc d3 28 37 88 66 e2 3f
       0.3420502549578993 0.575016124471055
0007a0 18 80 15 9c 4d 18 a3 3f 6c 3b 6f d0 e2 0f de bf
       0.03729479341814129 -0.46971960406238256
0007b0 56 7a e9 19 14 34 c6 bf 5b 2c f2 06 82 8a d7 3f
       -0.17346431031451698 0.36782885244673985
0007c0 c6 f8 ad 3a b7 ee c3 bf 2d 98 45 c6 ce a7 d1 3f
       -0.15572252621854527 0.2758671699760978
0007d0 c8 25 b5 d7 3d 39 a0 bf 93 86 3b da e0 ea e4 3f
       -0.031686718541617476 0.6536716711381864
0007e0 2b 64 e8 5b c7 e8 d5 3f 5a 47 55 d5 1a 36 d1 3f
       0.34233268714303006 0.2689272960025072
0007f0 69 91 90 51 38 46 e3 bf 2a 4c b5 dc 24 98 d7 3f
       -0.6023217766819872 0.3686611323693706
